# YOLOv5 ðŸš€ by Ultralytics, AGPL-3.0 license

# Parameters
nc: 20  # number of classes
depth_multiple: 1.0  # model depth multiple, don't change this otherwise InvertedResidual will be affected
width_multiple: 1.0  # layer channel multiple don't change this otherwise InvertedResidual will be affected
# anchors
anchors:
  - [10,13, 16,30, 33,23]  # P3/8
  - [30,61, 62,45, 59,119]  # P4/16
  - [116,90, 156,198, 373,326]  # P5/32

# YOLOv5 backbone - MobileNetV3-Large 15å±‚
backbone:
  # MobileNetBlock: [out_ch, hidden_ch, kernel_size, stride, use_se, use_hs]
  # hidden_chè¡¨ç¤ºåœ¨Inverted residualsä¸­çš„æ‰©å¼ é€šé“æ•°
  # use_se è¡¨ç¤ºæ˜¯å¦ä½¿ç”¨SELayer, use_hs è¡¨ç¤ºä½¿ç”¨h_swishè¿˜æ˜¯ReLU
  # [from, number, module, args]
  [[-1, 1, conv_bn_hswish, [16, 2]],                    # 0-p1/2
   [-1, 1, InvertedResidual3, [ 16,  16, 3, 1, 0, 0]],  # 1-p1/2
   [-1, 1, InvertedResidual3, [ 24,  64, 3, 2, 0, 0]],  # 2-p2/4
   [-1, 1, InvertedResidual3, [ 24,  72, 3, 1, 0, 0]],  # 3-p2/4
   [-1, 1, InvertedResidual3, [ 40,  72, 5, 2, 1, 0]],  # 4-p3/8
   [-1, 1, InvertedResidual3, [ 40, 120, 5, 1, 1, 0]],  # 5-p3/8
   [-1, 1, InvertedResidual3, [ 40, 120, 5, 1, 1, 0]],  # 6-p3/8
   [-1, 1, InvertedResidual3, [ 80, 240, 3, 2, 0, 1]],  # 7-p4/16
   [-1, 1, InvertedResidual3, [ 80, 200, 3, 1, 0, 1]],  # 8-p4/16
   [-1, 1, InvertedResidual3, [ 80, 184, 3, 1, 0, 1]],  # 9-p4/16
   [-1, 1, InvertedResidual3, [ 80, 184, 3, 1, 0, 1]],  # 10-p4/16
   [-1, 1, InvertedResidual3, [112, 480, 3, 1, 1, 1]],  # 11-p4/16
   [-1, 1, InvertedResidual3, [112, 672, 3, 1, 1, 1]],  # 12-p4/16
   [-1, 1, InvertedResidual3, [160, 672, 5, 1, 1, 1]],  # 13-p4/16
   [-1, 1, InvertedResidual3, [160, 672, 5, 2, 1, 1]],  # 14-p5/32
   [-1, 1, InvertedResidual3, [160, 960, 5, 1, 1, 1]],  # 15-p5/32
  ]

# YOLOv5 head
# the head is still yolov5s, but depth_multiple and width_multiple are set to 1.0, so Conv and C3 need to be changed
# depth_multiple of yolov5s: 0.33, i.e., number of C3: 3 -> 1
# width_multiple of yolov5s: 0.50, i.e., halve the ch_out
head:
  [[-1, 1, Conv, [256, 1, 1]],
   [-1, 1, nn.Upsample, [None, 2, 'nearest']],
   [[-1, 13], 1, Concat, [1]],  # cat backbone P4
   [-1, 1, C3, [256, False]],  # 13 -> 19

   [-1, 1, Conv, [128, 1, 1]],
   [-1, 1, nn.Upsample, [None, 2, 'nearest']],
   [[-1, 6], 1, Concat, [1]],  # cat backbone P3
   [-1, 1, C3, [128, False]],  # 17 (P3/8-small) -> 23

   [-1, 1, Conv, [128, 3, 2]],
   [[-1, 20], 1, Concat, [1]],  # cat head P4
   [-1, 1, C3, [256, False]],  # 20 (P4/16-medium) -> 26

   [-1, 1, Conv, [256, 3, 2]],
   [[-1, 16], 1, Concat, [1]],  # cat head P5
   [-1, 1, C3, [512, False]],  # 23 (P5/32-large) -> 29

   [[23, 26, 29], 1, Detect, [nc, anchors]],  # Detect(P3, P4, P5)
  ]


